dehazepro/dehaze/model/multi_U_151.pth (torch_old, 323304 bytes, 54 tensors)

refine.conv_refin.weight f4 [20, 19, 3, 3]
0	0xbd92a118	-0.071596324
1	0x3da6a896	0.08137624
2	0x3ddd4e9a	0.10806008
3	0xbc8eb963	-0.017422384
4	0xbc88c333	-0.01669464
5	0x3d0b5194	0.034013346
6	0xbcc2c750	-0.02377668
7	0x3e2292b7	0.1587628
8	0x3d17e40e	0.037082724
9	0xbda582d8	-0.08081597
10	0xbde60965	-0.112322606
11	0xbd944880	-0.07240391
12	0xbe01c2be	-0.12671944
13	0xbd908074	-0.070557505
14	0xbe0e879c	-0.13918918
15	0xbdb3f15c	-0.0878627
16	0xbdff80f5	-0.124757685
17	0xbd3a2e38	-0.045454234
18	0x3d9e3b86	0.07726197
19	0xbcb057ed	-0.021526301
20	0x3db3e3d9	0.08783693
21	0x3d8ebc66	0.06969528
22	0x3d641c31	0.055690948
23	0x3d30a498	0.04312572
24	0x3caeaed5	0.0213236
25	0x3d1c6699	0.038183782
26	0xbd453eba	-0.048155524
27	0x3ac6d921	0.0015170911
28	0x3d1d6111	0.038422648
29	0x3cc31529	0.0238138
30	0xbd3c167c	-0.04591988
31	0x3d23ca4b	0.039987843
32	0xbc3b2c8d	-0.011424196
33	0x3bd735b1	0.00656768
34	0xbcece587	-0.02891804
35	0x3d30347d	0.043018807
36	0xbbdbc94a	-0.006707345
37	0xbb2b308f	-0.0026121472
38	0xbd85d748	-0.06535202
39	0x3d0084da	0.031376697
40	0x3da3b1a6	0.07992868
41	0x3b7bc0f9	0.0038414581
42	0xbce53de1	-0.027983608
43	0xbab49939	-0.0013778574
44	0x3c2883a3	0.010285291
45	0xbbc62727	-0.006047148
46	0x3c1786ca	0.009248445
47	0x3bbd7805	0.0057821297
48	0x3d65a217	0.056062784
49	0xbd5a9cef	-0.05337232
50	0x397504f8	0.00023366872
51	0xbc978857	-0.01849763
52	0xbca44a3c	-0.020054929
53	0xb89acbe1	-7.381268e-05
54	0xbc7fcc99	-0.015612745
55	0x3b025b70	0.0019890927
56	0x3ca6382a	0.020290453
57	0xbc66c02b	-0.014083902
58	0xbd40d697	-0.04707965
59	0xbc0106af	-0.007875129
60	0x3c9e9a49	0.019360678
61	0xbb336d3f	-0.0027378348
62	0xbc17b864	-0.009260271
63	0xbcdd7623	-0.027033871
64	0xbcf4e718	-0.02989535
65	0xbcb9f3b8	-0.022699222
66	0x3d4ee800	0.05051422
67	0xbc8b51e4	-0.017006822
68	0x3b76ea41	0.0037676247
69	0x3b8abac0	0.004233688
70	0x3cc78025	0.024353096
71	0xbce4c200	-0.027924538
72	0x3d7e6df9	0.062116597
73	0xbd5d1132	-0.053971477
74	0xbbab4288	-0.005226437
75	0xbda593b5	-0.080848135
76	0x3d163ebb	0.03668092
77	0xbbe6cf6d	-0.00704377
78	0x3d38745b	0.04503284
79	0xbd62351c	-0.05522643
80	0x3d4827c6	0.048866056
81	0xbcf77eec	-0.030211888
82	0xbdc77fd1	-0.09741176
83	0x3d7f99c7	0.062402513
84	0xbb9cdfb3	-0.004787409
85	0xbd3bf721	-0.045889977
86	0x3c2e1fba	0.010627681
87	0x3bec73c9	0.007215951
88	0xbc1ba78b	-0.009500395
89	0x3d88af6a	0.066740826
90	0x3ca9e8a0	0.020740807
91	0xbc9b6ac2	-0.018971805
92	0xbc91854f	-0.017763762
93	0xbb2c5608	-0.0026296396
94	0x3ca22071	0.01979086
95	0x3cffe1e0	0.031235635
96	0x3b63bcf1	0.003475007
97	0x3ca7ec21	0.020498337
98	0xbc471809	-0.0121517265
99	0x3c865f36	0.016402822
100	0x3cdd3959	0.027004885
101	0x3d450f72	0.048110433
102	0xbd12f76c	-0.03588049
103	0x3c4392b9	0.011936837
104	0xbc22797b	-0.0099166585
105	0x3ce20a69	0.027592855
106	0xbc96099f	-0.018315135
107	0xbc076499	-0.00826373
108	0xbc58d481	-0.013234259
109	0xbbaf1173	-0.0053426563
110	0x3c3a6021	0.011375458
111	0x3b48d2d3	0.003064324
112	0x3d174d17	0.036938753
113	0xbcdce6ab	-0.02696546
114	0xbcd2c60e	-0.025729205
115	0x3d400752	0.04688198
116	0x3cee7620	0.02910906
117	0x3d3defdd	0.04637133
118	0x3cfa26b5	0.030536035
119	0xbc0cb0ce	-0.008587075
120	0x3ca9b269	0.020714955
121	0x3d95da9f	0.07317089
122	0x3c07b416	0.008282682
123	0x3cb4c49a	0.022066403
124	0x3cf59393	0.029977595
125	0x3c977b88	0.018491521
126	0x3d2cba81	0.04217005
127	0xbba6a645	-0.005085739
128	0x3a4fdfb4	0.00079297577
129	0xbc305b25	-0.010763918
130	0x3a005b5e	0.0004896427
131	0xbb520e98	-0.0032052156
132	0x3c9aa75b	0.01887863
133	0xbc84cd0a	-0.016211051
134	0xbc61e7c3	-0.013788166
135	0xbb459248	-0.0030147005
136	0xbd2e3360	-0.042529464
137	0xbcae967a	-0.021311987
138	0x3c94a5fa	0.01814555
139	0xbace1017	-0.0015721348
140	0xbc2db94b	-0.010603259
141	0x38d6695c	0.0001022394
142	0xbbbd3e0d	-0.0057752193
143	0x3cbfa4ed	0.023394072
144	0xbc072f6c	-0.008251052
145	0xbcde5c93	-0.027143752
146	0xbd07d0b3	-0.033158015
147	0x3d175680	0.036947727
148	0x3bfa950c	0.0076471623
149	0x3c6681e4	0.014069054
150	0xbcce9236	-0.025216203
151	0xbc838585	-0.016054878
152	0xbd02738a	-0.031848468
153	0x3d360f49	0.04444817
154	0xbccfd1d2	-0.025368605
155	0x3d37a46c	0.04483454
156	0xbd5f2d33	-0.054486465
157	0x3d18a163	0.037263285
158	0xbb6d352d	-0.0036195025
159	0x3cfd0921	0.030888142
160	0xbd54a8a7	-0.051918652
161	0x3c730c32	0.014834451
162	0x3d051fed	0.03250115
163	0xbc208172	-0.009796487
164	0x3ab90b84	0.0014117812
165	0x3c99f40f	0.018793134
166	0x3d255881	0.040367607
167	0x3cbee8e8	0.023304418
168	0xbbb2f849	-0.005461727
169	0x3cb84acc	0.022496603
170	0xbd4076e7	-0.046988394
171	0xbd957d81	-0.072993286
172	0xbdee5432	-0.11637153
173	0x3d2156a2	0.03938926
174	0xbce1d1c4	-0.027565844
175	0xbdccfb32	-0.10008849
176	0xbdb7ea47	-0.08980232
177	0x3cc91831	0.024547668
178	0x3d550791	0.05200917
179	0xbc4fc813	-0.012681979
180	0x3d2d6a84	0.04233791
181	0x3be5bc51	0.0070109745
182	0x3bd0c684	0.006371321
183	0x3dd48d7e	0.1037855
184	0x3db881b7	0.09009116
185	0x3ce69453	0.028146898
186	0xbc3501e7	-0.011047817
187	0x3dae4a0d	0.08510218
188	0xbda24a8d	-0.07924376
189	0xbdba3110	-0.09091389
190	0x3d0b2b4e	0.033976845
191	0x3cf93ccc	0.030424498
192	0xbd7dde66	-0.061979674
193	0x3c8691ad	0.016426886
194	0xbd8b8d4c	-0.068140596
195	0xbc14742f	-0.009060903
196	0xbd65547f	-0.055988785
197	0xbd122aee	-0.035685472
198	0xbcba6686	-0.022753965
199	0x3d281561	0.041036014
200	0xbda650df	-0.08120894
201	0x3d639d23	0.05556978
202	0x3d46f8b8	0.04857704
203	0xbc995a78	-0.018719897
204	0xbdf581b9	-0.11987633
205	0xbc009bb7	-0.007849625
206	0xbd7e43f2	-0.062076516
207	0xbc9ff58a	-0.019526262
208	0x3d5eae25	0.054365296
209	0xbbbe233c	-0.00580254
210	0x3d3719e4	0.044702426
211	0x3b3416aa	0.002747933
212	0x3d9f63f0	0.077827334
213	0x3cdecebf	0.027198194
214	0x3d9ec8a6	0.077531144
215	0x3d033d0e	0.03204065
216	0x3b519eae	0.003198545
217	0xbd28d880	-0.041222095
218	0xbd18be72	-0.037290998
219	0xbccf7df5	-0.025328616
220	0xbc2a4f5d	-0.010394898
221	0xbc7dc38a	-0.015488515
222	0x3b3d537b	0.002888887
223	0x38ddf589	0.00010583836
224	0xbb1dec58	-0.002409717
225	0xbd65157f	-0.055928703
226	0xbb8dfd77	-0.004333194
227	0xbb67da91	-0.0035378078
228	0xbab8f7b8	-0.0014111912
229	0x3c0fdd9d	0.008780864
230	0xbc0c36e2	-0.008558007
231	0xbcd13f2f	-0.025542824
232	0xbcfde581	-0.030993225
233	0xbcd8e0de	-0.026474413
234	0xbc5f3de2	-0.013625594
235	0xbd088d11	-0.033337656
236	0x3d30e8a3	0.04319061
237	0xbcfc3972	-0.03078911
238	0xbc87106f	-0.016487328
239	0x3db5f21d	0.0888407
240	0xbd639604	-0.055562988
241	0xbc5129df	-0.0127663305
242	0x3be85ab4	0.007090891
243	0xbd229b39	-0.039698813
244	0xbda91423	-0.08255794
245	0x3cc45ebb	0.023970952
246	0x3d9c7ba3	0.07640769
247	0xbdbc9b99	-0.092093654
248	0xbd00acdf	-0.031414863
249	0x3db2e058	0.087341964
250	0x3c441126	0.011966979
251	0x3c23283e	0.009958325
252	0xbd73c52d	-0.059514213
253	0x3d0b67f9	0.034034703
254	0xbe004be6	-0.12528953
255	0xbb2540c1	-0.0025215598

refine.conv_refin.bias f4 [20]
0	0x3dd171cc	0.10226783
1	0xbb69d877	-0.0035682002
2	0x3d0b35e6	0.03398695
3	0xbd9c28c1	-0.07624961
4	0x3d293df3	0.041318845
5	0xbd6aa0dd	-0.057282317
6	0x3dad1d6f	0.0845288
7	0x3c3c23a8	0.0114831105
8	0x3dc620a5	0.09674195
9	0x3dcb8132	0.099367514
10	0xbd476e9a	-0.048689462
11	0x3caa34d7	0.02077715
12	0xbc37383f	-0.011182844
13	0x3d3e671c	0.04648505
14	0x3da7f960	0.082018614
15	0x3dff73fc	0.12473294
16	0x3dc4632d	0.09589229
17	0xbce4ddf2	-0.027937863
18	0x3d807acf	0.06273424
19	0xbd1cdd65	-0.038297076

refine.conv1010.weight f4 [1, 20, 1, 1]
0	0x3d86809f	0.06567501
1	0xbadf005a	-0.0017013655
2	0xbdb041c5	-0.086062945
3	0xbdc48a6d	-0.09596715
4	0xbbe928f5	-0.007115478
5	0x3e283102	0.16424945
6	0x3f2865c0	0.6578026
7	0xbddd6e67	-0.10812073
8	0x3db935ce	0.090434656
9	0xbec9d06d	-0.3941683
10	0xbe1dcd65	-0.15410383
11	0x3e981f7b	0.29711518
12	0x3c2d6a44	0.010584418
13	0xbda3f92d	-0.08006511
14	0x3e66e077	0.22546564
15	0x3e81fe52	0.25389344
16	0x3e3a2040	0.18176365
17	0xbdb7b9b9	-0.08970971
18	0xbe24ff2f	-0.1611297
19	0x3d658900	0.056038857

refine.conv1020.weight f4 [1, 20, 1, 1]
0	0x3d0ec3ce	0.034854703
1	0xbe6a6bda	-0.22892705
2	0x3de6a05d	0.112610556
3	0xbcc1a4bf	-0.023638127
4	0xbe5e87ba	-0.21731463
5	0xbbfe82b0	-0.007767044
6	0x3e99a940	0.3001194
7	0xbd5c2c9a	-0.053753473
8	0xbde9cc7f	-0.11415958
9	0x3c75abaf	0.014994546
10	0x3db1f588	0.086894095
11	0x3e42f156	0.19037375
12	0xbd9a17b7	-0.075240545
13	0x3e293ba3	0.16526656
14	0x3d9a3878	0.07530302
15	0xbd3465bf	-0.044042345
16	0x3d9f2e71	0.0777253
17	0x3e6f3aed	0.23362322
18	0xbde70766	-0.11280708
19	0xbe1d2091	-0.15344454

refine.conv1030.weight f4 [1, 20, 1, 1]
0	0xbe880527	-0.2656643
1	0xbd8f27c3	-0.06990006
2	0xbdb7078c	-0.08936986
3	0x3e314a45	0.17313488
4	0x3ca850a1	0.02054626
5	0xbd2bddd1	-0.041959587
6	0xbe53ba1b	-0.20676462
7	0xbe2ab375	-0.1667002
8	0x3d8ff796	0.07029645
9	0x3e09fa2c	0.13474339
10	0xbb524e7d	-0.003209024
11	0x3d81fb33	0.063467406
12	0xbd63c01f	-0.055603143
13	0x3db750f6	0.08950989
14	0xbe98b6c5	-0.29826942
15	0x3e608586	0.21925935
16	0x3d06eed8	0.032942623
17	0x3e8b7610	0.27238512
18	0x3df9d6b5	0.12199155
19	0xbe2c14a0	-0.16804743

refine.conv1040.weight f4 [1, 20, 1, 1]
0	0xbe476ec9	-0.19475855
1	0xbe164278	-0.14673793
2	0xbe367d75	-0.17821296
3	0xbdbd7749	-0.092512675
4	0xbdcf68b7	-0.10127395
5	0xbe83ed16	-0.2576682
6	0xbe115077	-0.14190851
7	0xbd4aeff1	-0.049545232
8	0xbe6c466f	-0.23073743
9	0x3e584dac	0.2112338
10	0x3e4e1cfc	0.20128244
11	0x3bb15c4e	0.005412615
12	0x3e378d8a	0.17925087
13	0x3d850eca	0.064969614
14	0xbdb5cfa2	-0.088774934
15	0xbe46710c	-0.19379061
16	0xbd8556a6	-0.065106675
17	0x3d468648	0.048467904
18	0xbe821547	-0.25406858
19	0xbe388bcf	-0.18022083

refine.refine3.weight f4 [20, 24, 3, 3]
0	0x3dc2e7c3	0.09516861
1	0x3dc5695b	0.096392356
2	0x3c383738	0.011243634
3	0xbd08da98	-0.033411592
4	0x3ca5f807	0.02025987
5	0x3db5701a	0.08859272
6	0xbd6cd46a	-0.05781976
7	0x3c989a5a	0.018628288
8	0xbd87a619	-0.066234775
9	0x3dc36dbb	0.09542414
10	0xbd654488	-0.05597356
11	0xbca9a7e9	-0.020709949
12	0x3d834b37	0.064108305
13	0x3c82f074	0.015983798
14	0xbba4a7e3	-0.0050248965
15	0xbc4890eb	-0.012241582
16	0xbc25a3e0	-0.010109872
17	0xbda2f7d8	-0.07957429
18	0x3daec0e1	0.085328825
19	0xbe03d86f	-0.12875532
20	0x3c8a8e0d	0.016913438
21	0x3ca5342d	0.02016648
22	0xbdeb42d5	-0.114873566
23	0xbd2aea1e	-0.041727178
24	0x3db63f9f	0.088988535
25	0xbce5f973	-0.028073048
26	0x3df51781	0.11967374
27	0xbd7406a3	-0.05957664
28	0xbdfe7b6f	-0.12425887
29	0xbc5e2114	-0.013557691
30	0xbdc4e027	-0.09613066
31	0x3cd5a483	0.026079422
32	0x3b863406	0.004095557
33	0x3d96e897	0.07368582
34	0x3c0591b5	0.008152415
35	0x3dba23f0	0.09088886
36	0x3b9b356d	0.0047365935
37	0xbd477d7d	-0.04870366
38	0xbc1d835b	-0.009613837
39	0x3bc1b050	0.0059109107
40	0xbd977fea	-0.073974445
41	0xbd2dea4a	-0.042459764
42	0x3c960727	0.018313957
43	0x3b9a6933	0.0047122478
44	0xbdab39a5	-0.08360604
45	0x3cdb7a93	0.026791846
46	0xbd32d3ea	-0.04365913
47	0x3cca485d	0.024692709
48	0x3c465185	0.012104397
49	0x3d55e959	0.05222449
50	0xbc8853b5	-0.016641477
51	0xbcd99ee1	-0.026565017
52	0xbdea0e41	-0.114285
53	0xbd6d930c	-0.058001563
54	0xbc971c29	-0.018446045
55	0xbcf69a1d	-0.030102784
56	0xbceea428	-0.02913101
57	0xbd9ea297	-0.07745855
58	0x3be6958c	0.0070368703
59	0x3d969bf5	0.07353965
60	0x3daf3504	0.08555034
61	0x3df2660b	0.118358694
62	0xbcb407ff	-0.02197647
63	0xbd32a036	-0.04360982
64	0xbab8f0d9	-0.0014109864
65	0x3c955764	0.018230148
66	0xbde7248a	-0.11286266
67	0x3dd0e37a	0.10199638
68	0xbbaf5116	-0.0053502424
69	0xbcaaf019	-0.02086644
70	0x3d0d87dc	0.034553394
71	0x3d0d1d42	0.03445173
72	0x3d4fa98d	0.050698806
73	0xbc2b5917	-0.010458252
74	0x3a12fc15	0.0005607021
75	0xbd92fade	-0.07176755
76	0x3b2c2c22	0.0026271422
77	0xbc642634	-0.013925124
78	0xbc1f14e4	-0.009709571
79	0xbdcaec27	-0.09908324
80	0xbd3e0ab0	-0.04639691
81	0x3d1b654c	0.0379384
82	0x3c70f187	0.014706022
83	0x3cc4002d	0.023925865
84	0x39ed7191	0.00045288776
85	0x3d902e93	0.07040133
86	0x3da68983	0.08131697
87	0xbc5ece49	-0.013598987
88	0x3bffa9f1	0.007802241
89	0xbcce94f6	-0.025217514
90	0xbb9702c5	-0.0046084845
91	0x3cb9c003	0.022674566
92	0xbc3ad187	-0.011402494
93	0x3c184bc7	0.0092954105
94	0xbcbadc0a	-0.02281
95	0xbaee1290	-0.0018163491
96	0x38b18871	8.465432e-05
97	0x3c12b322	0.008953841
98	0xbcab08fa	-0.020878304
99	0x3c9b1c0d	0.018934274
100	0xbcfa0dcd	-0.030524159
101	0xbdfe0ca7	-0.12404757
102	0xbbe05bde	-0.006846889
103	0xbcfeea0b	-0.03111746
104	0x3d37c484	0.044865146
105	0x3c97b330	0.01851806
106	0x3d2fb4a8	0.042896897
107	0x3ba6e08a	0.005092685
108	0xbb6bbb64	-0.0035969848
109	0xbcfc82ad	-0.03082403
110	0x3d46ed0a	0.0485659
111	0x3cc2efad	0.023795927
112	0xbd7410b0	-0.059586227
113	0x3cdddb56	0.027082127
114	0x3b676ed9	0.0035313873
115	0x3d8bb7bb	0.06822153
116	0xbc6c78e3	-0.0144331185
117	0x3b9d24fe	0.0047956696
118	0x3c26ce22	0.010180982
119	0xbc92a61d	-0.017901475
120	0x3bc7cf74	0.0060977284
121	0x3d03f0a9	0.032211933
122	0x3cb93fa3	0.022613352
123	0xbbc8593a	-0.0061141523
124	0x3c73e4c7	0.014886088
125	0x3c8930f9	0.016746985
126	0xbdb1956b	-0.08671077
127	0x3df40b83	0.11916258
128	0x3dd4d102	0.103914276
129	0xbd4905f5	-0.049077947
130	0xbd54cf03	-0.051955234
131	0x3d2f01ec	0.042726442
132	0x3c80bcd3	0.015715038
133	0xbd4c8234	-0.04992886
134	0x3caada29	0.02085598
135	0xbcb13877	-0.02163337
136	0xbb404dc6	-0.0029343232
137	0xbcd581ee	-0.026062932
138	0x3c1235e0	0.008923978
139	0xbd3e0054	-0.04638703
140	0xbccb8368	-0.024842933
141	0xbc0ef59c	-0.00872555
142	0xbb12270d	-0.0022301108
143	0xbc696d28	-0.014247216
144	0x3c928080	0.01788354
145	0xbdf48842	-0.119400516
146	0xbde6f6a7	-0.11277514
147	0x3dbb80f4	0.09155455
148	0x3d94f0b1	0.07272471
149	0xbdbb5aa8	-0.09148151
150	0xbc868bd0	-0.01642409
151	0xbdc2c6ce	-0.09510575
152	0xbe0950d8	-0.13409746
153	0xbc841024	-0.016120978
154	0x38a70640	7.964345e-05
155	0xbd1e6520	-0.03867066
156	0x3b284697	0.002567684
157	0xbd606ed3	-0.05479319
158	0x3d47cc1c	0.04877864
159	0x3ac4d76c	0.0015017814
160	0x3b9a0cf0	0.0047012493
161	0x3d283f4e	0.041075997
162	0xbd8a2482	-0.067452446
163	0xbc6ecf64	-0.014575813
164	0xbd394d42	-0.045239694
165	0x3ce5438f	0.027986316
166	0xbd84ee15	-0.06490723
167	0x3df47b95	0.11937634
168	0x3bbebd90	0.0058209375
169	0x3dc860f6	0.09784119
170	0x3d0f8452	0.0350383
171	0x3a577062	0.00082183455
172	0x3d1bef54	0.038070038
173	0x3d45b976	0.048272572
174	0xbd481894	-0.048851565
175	0xbd2b0da5	-0.04176106
176	0x3b7a59fa	0.0038200603
177	0xbca5d700	-0.020244122
178	0xbba43be0	-0.0050120205
179	0x3d6c07e2	0.057624705
180	0xba82a5cf	-0.0009967628
181	0x3d86c79b	0.065810405
182	0x3d9ef331	0.07761229
183	0xbd00e021	-0.031463746
184	0x3cad6d79	0.021170365
185	0xbe154ce9	-0.1458012
186	0x3d2fab2c	0.04288785
187	0xbd4dde1e	-0.050260656
188	0x3b8b9b6b	0.0042604706
189	0xbda97924	-0.08275059
190	0xbd630fb5	-0.0554349
191	0xb824bc58	-3.9276056e-05
192	0xbdf590ac	-0.119904846
193	0xbd06cd94	-0.0329109
194	0xbd5f656c	-0.054540083
195	0xbd8a1551	-0.06742347
196	0xbd121a3f	-0.03566956
197	0xbc4cb3ff	-0.012494086
198	0x3cba13b5	0.022714475
199	0x3cfcc152	0.030853901
200	0x3ce271f7	0.027642233
201	0xbcaee79f	-0.02135068
202	0xbc520d7a	-0.012820596
203	0x3c82a812	0.015949283
204	0x3cab3b7f	0.020902393
205	0xbb87645e	-0.0041318377
206	0x3cadb0a6	0.021202397
207	0xbcfe94a8	-0.031076744
208	0x3dd83bb8	0.105582654
209	0x3d1b76e2	0.037955172
210	0xbd9e87b8	-0.0774073
211	0x3ddad8cd	0.10685883
212	0xbc5319f4	-0.012884606
213	0x3d595e20	0.05306828
214	0x3c9bc4eb	0.019014796
215	0xba9a75e2	-0.0011784399
216	0xbdea582e	-0.114426
217	0xbdb65c82	-0.08904363
218	0xbd63c150	-0.05560428
219	0xbdcf3c63	-0.1011894
220	0xbe0dd3f0	-0.13850379
221	0xbdeb408d	-0.114869215
222	0xbd822927	-0.063555054
223	0xbddbf767	-0.107405476
224	0xbdb9065b	-0.09034415
225	0x3c8023c1	0.015642049
226	0xbd957c27	-0.07299071
227	0x3c66e190	0.014091864
228	0xbd9663a1	-0.073432215
229	0x3b965d48	0.0045887567
230	0xbd450b83	-0.04810668
231	0x3d4eb6be	0.050467245
232	0xbd9725fe	-0.07380293
233	0x3c178223	0.009247336
234	0x3ba2c208	0.004966978
235	0x3c82da12	0.015973125
236	0xbc0118fb	-0.007879491
237	0xbd207eea	-0.039183535
238	0x3d8330c7	0.06405788
239	0x3c79f167	0.015255309
240	0xbc5a4deb	-0.013324241
241	0x3d7a2395	0.06106909
242	0xbc8680fc	-0.016418926
243	0x3d009f7e	0.031402104
244	0x3dd9259f	0.10602879
245	0xbcc948d0	-0.024570853
246	0x3d97220e	0.07379542
247	0x3cf91a7f	0.030408142
248	0x3c8bbe38	0.017058477
249	0xbd49af3a	-0.049239375
250	0x3bcb5e1e	0.006206288
251	0x3d746e39	0.05967543
252	0x3cc6716e	0.02422401
253	0xbd1b9b83	-0.037990104
254	0x3d1e065d	0.038580287
255	0x3d4de292	0.050264902

refine.refine3.bias f4 [20]
0	0xbce68eae	-0.028144207
1	0x3da874ac	0.082253784
2	0xbd738e09	-0.059461627
3	0x3def4631	0.1168331
4	0xbcf7b3c1	-0.03023708
5	0x3cebabd6	0.028768461
6	0xbdcc5f38	-0.09979099
7	0xbd14caec	-0.036326334
8	0x3d1edd14	0.038785055
9	0xbc7e1de6	-0.015510058
10	0xbc44d21d	-0.012012986
11	0x3cffeae4	0.031239934
12	0xbc86fd8a	-0.016478319
13	0xbd2e1d34	-0.04250832
14	0xbd6d24a5	-0.057896275
15	0xbab298aa	-0.001362582
16	0xbc9cf59a	-0.01916008
17	0xbd86e8fa	-0.065874055
18	0xbbbe7ff4	-0.005813593
19	0x3c654993	0.013994592

refine.refine4.weight f4 [20, 20, 3, 3]
0	0xbd20a42e	-0.039219074
1	0x3c9595a3	0.018259829
2	0x3b00ed93	0.0019672855
3	0x3c68d447	0.014210767
4	0x3d433c1e	0.047664754
5	0xbca023b0	-0.019548267
6	0x3d11624b	0.03549413
7	0xbb0ac7df	-0.0021176261
8	0x3d1cbcd0	0.038266003
9	0x3d9fd779	0.0780477
10	0xbd9cad75	-0.07650272
11	0x3c427e2c	0.011870902
12	0x3d0cb6aa	0.03435389
13	0xbc40ad06	-0.011760002
14	0xbc2ceee7	-0.010555006
15	0x3d163c31	0.036678497
16	0xbd708385	-0.058719177
17	0x3c714546	0.014725989
18	0xbc52b7cc	-0.012861203
19	0xbd776729	-0.060401116
20	0xbb994f72	-0.00467866
21	0x3d03ac8a	0.032146968
22	0x3d8833d5	0.06650511
23	0x3d6ee4fc	0.058323845
24	0x3d5c1853	0.053734135
25	0xbd6ff32d	-0.05858152
26	0x3b5da714	0.003382151
27	0x3c2894b0	0.010289356
28	0x3e0f687f	0.14004706
29	0xbd7c6504	-0.061619774
30	0xbcd29b42	-0.025708798
31	0x3c66de8f	0.014091148
32	0xbcb840e3	-0.022491878
33	0xbd65b6a5	-0.056082387
34	0xbbd0f77a	-0.0063771578
35	0x3caa2769	0.020770745
36	0x3c2fdf58	0.010734402
37	0xbdbeda3f	-0.09318971
38	0x3c958438	0.018251523
39	0x3d4688c8	0.04847029
40	0x3d736868	0.05942574
41	0x3dcba0cf	0.09942781
42	0xbd7a8f47	-0.061171796
43	0xbd8b4c02	-0.06801607
44	0x3c9d12e3	0.019174045
45	0x3cf6d69d	0.030131632
46	0xbd54f9cd	-0.05199604
47	0xbd14c770	-0.03632301
48	0x3d65a015	0.05606087
49	0x3d251ee6	0.04031267
50	0x3dbea63a	0.09309049
51	0x3d30be37	0.043150153
52	0xbd37b63d	-0.04485153
53	0xbba32757	-0.004979055
54	0xbd0123ed	-0.031528402
55	0xbd596801	-0.0530777
56	0xbbd404e3	-0.006470309
57	0x3d57ab8f	0.052653845
58	0x3b53576b	0.003224815
59	0x3d255f91	0.040374342
60	0x3ce02b55	0.027364412
61	0x3c59ebf0	0.013300881
62	0x3be2e4ff	0.006924271
63	0x3ceec01e	0.029144343
64	0x3d4a63db	0.049411636
65	0x3cae1caf	0.021253912
66	0xbd07831c	-0.03308402
67	0x3e0ba35f	0.1363654
68	0xbd3a4aa6	-0.045481347
69	0xbd0ed2cb	-0.034868997
70	0x3d27a9c7	0.040933397
71	0xbd68a4fa	-0.05679796
72	0x3d844dc2	0.064601436
73	0xbcee29cd	-0.029072667
74	0xbda7a510	-0.0818578
75	0x3db32ee1	0.08749176
76	0xbda0027c	-0.07812974
77	0xbb6b9c05	-0.003595115
78	0x3cd49bb3	0.02595315
79	0xbb1931b7	-0.002337558
80	0x3d75f701	0.060050014
81	0x3db753ef	0.08951556
82	0xbc035916	-0.008016845
83	0xbd9849d9	-0.0743596
84	0x3d115163	0.035478007
85	0xbdd15e40	-0.10223055
86	0x3bac37ac	0.00525566
87	0x3d1bf3a9	0.03807417
88	0x3d974ff1	0.073882945
89	0x3bc8df24	0.006130116
90	0x3d27818b	0.040895026
91	0xbd32d219	-0.043657396
92	0x3d0bb4b2	0.03410787
93	0xbcfa6e1c	-0.030570082
94	0x3cbcdb38	0.02305375
95	0x3da50f5e	0.08059572
96	0xbbc3832f	-0.005966566
97	0xbd283b5f	-0.041072246
98	0xbc943f80	-0.018096685
99	0xbd6a4d27	-0.057202484
100	0x3cc63bd4	0.02419845
101	0x3d7a2970	0.061074674
102	0x3c923ba1	0.017850699
103	0xbde6b7f9	-0.11265559
104	0xbe0d448b	-0.13795678
105	0xbc2978f0	-0.010343775
106	0xbc950094	-0.018188752
107	0x3d1c0cea	0.038098253
108	0x3d95451d	0.07288573
109	0x3d831c41	0.064018734
110	0x3d104ffa	0.03523252
111	0xbd6d9092	-0.0579992
112	0xbe2ff7fd	-0.17184444
113	0x3d347a10	0.04406172
114	0xbd411c1a	-0.04714594
115	0x3cf47fbd	0.029846067
116	0x3c9270da	0.017876077
117	0x3d473afe	0.048640244
118	0xbc481e79	-0.0122142965
119	0xbd0e0882	-0.034676082
120	0x3de0d2c7	0.109777026
121	0xbe0d6679	-0.13808621
122	0x3c232ec5	0.009959881
123	0x3d42f39b	0.0475956
124	0x3cde5882	0.027141813
125	0x3d8523f8	0.06501001
126	0xbd2a77c0	-0.04161811
127	0x3d0a679b	0.033790212
128	0xbcf37707	-0.029719843
129	0x3c23e703	0.010003808
130	0x3e260c1a	0.16215554
131	0x3d504036	0.050842486
132	0xbd73dea8	-0.059538513
133	0x3cdef72c	0.02721747
134	0xbd93f444	-0.07224324
135	0xba101597	-0.0005496381
136	0x3d426596	0.04746016
137	0x3b5a8d9f	0.0033348573
138	0x3d3f2d5b	0.046674114
139	0x3cb32221	0.02186686
140	0xbce777dc	-0.028255396
141	0xbd49925b	-0.04921184
142	0xbbe1588b	-0.00687701
143	0xbacfceb3	-0.0015854448
144	0x3db425b0	0.08796251
145	0xbe001a0d	-0.12509938
146	0x3c2efc0a	0.010680208
147	0xbcff5d77	-0.031172497
148	0xbc8e4246	-0.017365586
149	0xbbe81264	-0.0070822705
150	0xbdbb0716	-0.09132211
151	0x3ca8609e	0.020553883
152	0xbc1b7c20	-0.009490043
153	0xbb7b0061	-0.0038299786
154	0xbd4e2e41	-0.05033708
155	0xbcfdfc3b	-0.031004062
156	0xbda63f24	-0.08117512
157	0x3e1db492	0.15400913
158	0x3ceb3df0	0.028716058
159	0x3bd8353f	0.0065981443
160	0x3c25a6eb	0.010110597
161	0xbd382352	-0.04495556
162	0xbcb59e9e	-0.022170361
163	0x3d16622d	0.03671472
164	0x3c6ce9cc	0.014460038
165	0xbd901b31	-0.07036436
166	0x3e2ae799	0.1668991
167	0x3db9d8f6	0.09074585
168	0x3bed4a5b	0.00724153
169	0x3d2b9e06	0.04189875
170	0xbc82daf2	-0.015973542
171	0x3b9e2240	0.0048258603
172	0xbd18f54e	-0.037343316
173	0xbd09265c	-0.033483848
174	0x3d5563ea	0.05209724
175	0xbda92adb	-0.08260127
176	0x3c908deb	0.017645797
177	0x3d09b9c0	0.03362441
178	0xbd223ede	-0.039610736
179	0x3cb50e1c	0.022101454
180	0xbd96dbe5	-0.0736616
181	0xbbc3c4f9	-0.0059744087
182	0xbd02e6cc	-0.031958386
183	0x3d7af087	0.06126454
184	0x3cc097f9	0.023509966
185	0x3d4df794	0.050284937
186	0xbd7d9f08	-0.061919242
187	0xbd0663ea	-0.03281013
188	0x3ce7f58b	0.028315326
189	0xbdac3c20	-0.084099054
190	0xbdaa1ef1	-0.08306683
191	0xbd6b9b7d	-0.057521332
192	0x3c0146cf	0.007890417
193	0xbc8c8828	-0.017154768
194	0xbda01a77	-0.07817548
195	0xbcc950f0	-0.024574727
196	0x3d2e7b0e	0.042597823
197	0xbd145696	-0.036215387
198	0xbdcaeaff	-0.09908103
199	0x3d4a427d	0.049379814
200	0xbda3efd4	-0.08004728
201	0x3c28707b	0.010280724
202	0x3c8f4f98	0.017494008
203	0x3d34dade	0.04415404
204	0xbd7f5f6b	-0.062346857
205	0x3d57b13e	0.052659266
206	0xbd94ad52	-0.07259621
207	0xbc949c07	-0.018140806
208	0x3c8c6f30	0.017142862
209	0x3d738dc4	0.05946137
210	0xbcd969e8	-0.026539758
211	0xbcc66615	-0.024218598
212	0x3db875d0	0.09006846
213	0xba38aff4	-0.0007045262
214	0xbd1b0c67	-0.037853625
215	0xbb8c98a1	-0.0042906557
216	0xbca8d6fd	-0.020610327
217	0x3cec5883	0.0288508
218	0xbda0591c	-0.07829496
219	0xbd47f4ae	-0.04881733
220	0x3cea2ccd	0.028585816
221	0xbda836ff	-0.08213615
222	0xbdb17a76	-0.08665936
223	0xbd4fa124	-0.050690785
224	0xbd89ceaa	-0.06728871
225	0x3da1f502	0.0790806
226	0xbd985f61	-0.07440067
227	0x3d10e33c	0.035372958
228	0xbd91eb3a	-0.07124944
229	0x3d3ba21c	0.045808896
230	0x3c62797d	0.01382291
231	0x3d479e63	0.048735034
232	0xbd3bf2b2	-0.04588575
233	0xbc856132	-0.016281698
234	0xbd0e47fd	-0.034736622
235	0x3d2914a0	0.041279435
236	0xbd184cae	-0.037182502
237	0x3da59a29	0.08086044
238	0x3d2e3b41	0.042536978
239	0x3d81db9f	0.063407175
240	0x3d542b45	0.051799078
241	0xbc555754	-0.013021309
242	0xbcfa1bc7	-0.030530823
243	0xbd6e79d7	-0.058221664
244	0xbc38fcb3	-0.011290717
245	0x3d0d0cf8	0.034436196
246	0xbdca1c1f	-0.09868645
247	0x3db55fe1	0.08856178
248	0x3d2a2c88	0.041546375
249	0xbd164fce	-0.0366972
250	0x3d7f4bb8	0.06232807
251	0xbda32e9c	-0.079678744
252	0x3db633f7	0.0889663
253	0x3c82023f	0.015870212
254	0x3cebebf3	0.028799033
255	0xbc9f79cb	-0.019467255

refine.refine4.bias f4 [20]
0	0x3ce75a68	0.028241351
1	0xbced550b	-0.028971216
2	0x3ce23274	0.027611949
3	0x3ccedcc2	0.02525175
4	0x3d075b64	0.03304614
5	0x3d167ba3	0.036739003
6	0x3b12a022	0.0022373279
7	0x3daf0c88	0.08547312
8	0x3cd74744	0.0262791
9	0x3cf9d3a7	0.030496432
10	0x3c80c8e8	0.0157208
11	0x3b9fe4dd	0.0048795776
12	0xbcfa0c4b	-0.03052344
13	0xbb96d3b2	-0.0046028728
14	0x3d0cfc47	0.034420278
15	0x3ba1e2a5	0.004940348
16	0xb7a49b04	-1.9622508e-05
17	0x3d82d0e2	0.063874975
18	0x3c51ae99	0.012797975
19	0x3cc763fe	0.024339672

refine.refine5.weight f4 [20, 20, 7, 7]
0	0x3cdc7ba5	0.026914427
1	0xbcfef8dd	-0.031124527
2	0xbb24bd53	-0.002513726
3	0xbc4eaa00	-0.012613773
4	0x3cf6853a	0.030092824
5	0xbb1148df	-0.0022168679
6	0x3c747d8e	0.014922513
7	0xbcf9959d	-0.030466849
8	0xbd289c3b	-0.041164618
9	0x3d917045	0.07101492
10	0x3d088ba7	0.033336308
11	0xbc55810f	-0.013031258
12	0x3d27b3f3	0.040943097
13	0xbc2a9f87	-0.010414011
14	0x3c3dfefb	0.011596437
15	0x3cda37b9	0.026637899
16	0xbcb9b075	-0.02266715
17	0xbd3bf1ac	-0.045884773
18	0x3da7f55f	0.08201098
19	0x3c210ed7	0.009830198
20	0x3c3b62bd	0.011437115
21	0xbcab055e	-0.020876583
22	0x3ce1c6a0	0.027560532
23	0xbdaa8d53	-0.08327737
24	0xb9e0a4aa	-0.00042847294
25	0x3d22d47f	0.039753433
26	0x3c147776	0.009061685
27	0x3cdb14b5	0.026743272
28	0xbc114040	-0.008865416
29	0x3d2d306c	0.042282507
30	0x3d5452bc	0.051836714
31	0xbcd5e48e	-0.02610996
32	0xbc91f71c	-0.017818026
33	0xbd96894a	-0.073504046
34	0xbc5b7a8b	-0.013395916
35	0xbc3aa1f8	-0.011391155
36	0xbd22a953	-0.03971226
37	0x3c3864a4	0.011254463
38	0x3de9dd59	0.11419172
39	0x3d7631d7	0.060106125
40	0x3cd50ca3	0.026007002
41	0xbc756fac	-0.014980238
42	0x3d6a4d25	0.057202477
43	0xbbc29cc8	-0.0059391
44	0xbd290193	-0.041261267
45	0x3b967f53	0.004592815
46	0xbd11329c	-0.035448655
47	0x3d9c5b46	0.076345965
48	0xbce142bd	-0.027497644
49	0xbc26d23a	-0.010181958
50	0x3bb2a9ee	0.005452386
51	0x3b8b511a	0.0042516114
52	0x3bffbcac	0.007804474
53	0x3cd7c4ea	0.026339013
54	0xbbec4c39	-0.007211235
55	0x3c2dfb0b	0.010618935
56	0x3bf7c42d	0.007561228
57	0x3ce310c4	0.027717955
58	0x3c4fa4e6	0.012673592
59	0xbc4c32c7	-0.012463278
60	0xbacff022	-0.0015864412
61	0x3d17d222	0.037065633
62	0xbbcbc0a8	-0.006218035
63	0xbb6bcdfc	-0.003598093
64	0x3c003eb3	0.007827449
65	0xbc7bad58	-0.015361153
66	0x3b3e86c0	0.0029072016
67	0xbd1890d6	-0.0372475
68	0x3c819872	0.015819762
69	0xbb73c6ae	-0.003719728
70	0x3c24d04c	0.0100594275
71	0xbbb9ff25	-0.0056761676
72	0xbd1460b8	-0.03622505
73	0xbd7cc763	-0.061713587
74	0xbd144695	-0.036200125
75	0x3c8a5fbc	0.016891353
76	0x3d0eca19	0.034860704
77	0xbcaabb0d	-0.020841146
78	0x3bf63141	0.0075131957
79	0x3bb6c02a	0.005577107
80	0xbcedffc8	-0.02905263
81	0x3cb1a09d	0.021683032
82	0x3c9965c9	0.018725293
83	0x3b392e8b	0.0028256502
84	0xbb5c32d3	-0.003359963
85	0xbc3b581f	-0.011434584
86	0xbaf09200	-0.0018354058
87	0xbc0a9402	-0.008458139
88	0xbc60802a	-0.013702432
89	0xbc4a0185	-0.012329464
90	0x3b68335d	0.0035431006
91	0xbc504c9a	-0.012713576
92	0xbc41433a	-0.011795813
93	0xbb8a9441	-0.004229099
94	0x3c74a153	0.014931041
95	0xbcc8bfea	-0.024505574
96	0xbc46f23e	-0.012142716
97	0xbc893bfb	-0.016752234
98	0xbce4e7ea	-0.027942616
99	0x3d4f58e5	0.050621886
100	0xbb6e6841	-0.0036378058
101	0x3c036fe2	0.00802228
102	0xbcfbcb39	-0.030736553
103	0x3d7829bf	0.060586687
104	0xbc0d4461	-0.00862226
105	0xbc13ea22	-0.00902799
106	0x3cacde6d	0.021102155
107	0x3d5f1e35	0.054472167
108	0x3bb1a887	0.0054217014
109	0x3c6551a1	0.013996513
110	0xbd39973e	-0.04531025
111	0x3cc1a581	0.023638489
112	0x3d2bf33d	0.041980017
113	0x3dd7718b	0.105197035
114	0xbd573ad7	-0.05254635
115	0xbd97ba3a	-0.07408567
116	0x3b54859c	0.003242827
117	0xbc82c6ae	-0.015963878
118	0xbcb614e8	-0.022226766
119	0x3cb0d6c2	0.02158678
120	0x3dd9769b	0.10618325
121	0xbd3bb58d	-0.045827437
122	0xbcc869db	-0.024464538
123	0x3bf0eb3a	0.00735226
124	0xbbc70787	-0.0060738954
125	0x3b090e48	0.0020913053
126	0xbd332b00	-0.04374218
127	0xbbbe87bf	-0.005814522
128	0xbdc432fc	-0.09580037
129	0xbc7a649e	-0.015282778
130	0xbc7ca2a3	-0.015419635
131	0xbd42161b	-0.047384363
132	0x3c3bce1f	0.011462717
133	0xbd1a2cf1	-0.037640516
134	0xbb7273c5	-0.0036995274
135	0xbcc88200	-0.024476051
136	0x3dd2e69b	0.10297891
137	0x3d378ea9	0.044813786
138	0xbc3f444d	-0.011673999
139	0x3d4a2136	0.04934808
140	0x3d28d3e1	0.04121769
141	0xbd02b723	-0.031912934
142	0x3d0fb106	0.035080932
143	0x3ca68984	0.020329244
144	0xbd46db93	-0.048549246
145	0xbbfa0926	-0.007630485
146	0x3c27c996	0.010240933
147	0x3c8bcd77	0.017065747
148	0xbbebe4ff	-0.0071989293
149	0xbc8893e0	-0.016672075
150	0xbaa2b7fe	-0.0012414453
151	0x3c80c7ec	0.01572033
152	0x3c7fe5e5	0.015618776
153	0x3c708b26	0.014681613
154	0x3d1c063a	0.038091876
155	0xbd1db36d	-0.038501192
156	0xbd16985e	-0.036766402
157	0xbbb87c9a	-0.005630088
158	0x3cbd4135	0.023102382
159	0x3ce43a28	0.027859762
160	0xbbcd6649	-0.006268297
161	0xbd654e22	-0.055982716
162	0xbd8b3fc1	-0.067992695
163	0xbcf2b027	-0.029625012
164	0x3d609e11	0.054838244
165	0x3d4d49eb	0.05011932
166	0x3d77946d	0.060444284
167	0xbc59288b	-0.013254295
168	0xbc7c256a	-0.01538978
169	0xbd087b8f	-0.03332096
170	0x3d2508dd	0.040291656
171	0x3d941728	0.07230979
172	0x3d726c24	0.059185162
173	0x3d2a809b	0.041626554
174	0x3c741fd3	0.014900166
175	0x3c302c9e	0.010752825
176	0x3c6f7b3f	0.0146167865
177	0x3d787de1	0.060666922
178	0x3c3858b2	0.011251615
179	0x3d4536f5	0.048148114
180	0x3d13bb23	0.03606714
181	0x3b9a1a54	0.0047028456
182	0x3b88a4dc	0.0041700434
183	0xbd1c52a9	-0.03816477
184	0xbd09efa5	-0.03367581
185	0xbd7bf5e9	-0.061513815
186	0xbcc833ac	-0.024438702
187	0x3bb34420	0.0054707676
188	0xbc923cf5	-0.017851332
189	0x3bad3708	0.0052861013
190	0xbc8387c5	-0.01605595
191	0xbc736761	-0.01485619
192	0xbd1d4efb	-0.0384054
193	0xbc4ee5a8	-0.0126279965
194	0xbbcffe83	-0.006347479
195	0xbd2ec37d	-0.0426669
196	0xbcce324a	-0.025170464
197	0x3cc2854a	0.023745198
198	0x3b4bfea7	0.0031127126
199	0x3b8a1ec7	0.0042150947
200	0x3cae6afa	0.021291245
201	0x3c726715	0.0147950845
202	0x397d62d3	0.00024164775
203	0x3bafa968	0.005360771
204	0x3b1e0e54	0.0024117427
205	0x3c24c945	0.010057752
206	0x3c8c3187	0.01711346
207	0x3b9af024	0.004728334
208	0x3d3e1078	0.046402425
209	0x3cbc6cad	0.02300104
210	0xbc481bbb	-0.012213643
211	0xbb7a1c58	-0.0038163867
212	0x3db2c5c0	0.08729124
213	0x3d8c13a4	0.06839684
214	0xbd06b19e	-0.032884233
215	0xbc786933	-0.0151618
216	0xbcfefd80	-0.031126738
217	0xbc93fbe6	-0.01806445
218	0x3da72efe	0.0816326
219	0x3c807778	0.015681967
220	0xbb88258d	-0.004154867
221	0x3d2de130	0.042451084
222	0xbc67254e	-0.014108015
223	0x3c6c8c25	0.01443771
224	0xbc9a9ea0	-0.018874466
225	0x3c01ff59	0.007934415
226	0xbc58a8c7	-0.013223833
227	0xbd8e70d2	-0.069551125
228	0xbce79d9e	-0.0282734
229	0xbc45b453	-0.012066918
230	0x3cb0386e	0.021511283
231	0xbcadfc2d	-0.02123841
232	0xbca773b3	-0.020440912
233	0x3b9ee210	0.004848726
234	0xbcc6259e	-0.02418786
235	0x3bb2b0f5	0.005453224
236	0xb923767a	-0.00015589027
237	0xbcdc73e3	-0.026910728
238	0xbc5a4edb	-0.013324465
239	0x3cd54838	0.026035413
240	0x3c0c1847	0.00855071
241	0x3d1e8c06	0.038707756
242	0xbcd345d3	-0.02579013
243	0xbc768dc0	-0.015048444
244	0x3d0190c7	0.03163221
245	0x3baa95e6	0.0052058576
246	0xbc6ae1ef	-0.014336093
247	0x3cef593a	0.029217351
248	0xbc8b757a	-0.01702379
249	0xbcebcdba	-0.028784622
250	0x3b9f8e65	0.0048692697
251	0xbb63cfb7	-0.003476126
252	0xbb79b169	-0.003810013
253	0x3ba0db38	0.0049089454
254	0xbcd8c23f	-0.026459811
255	0xbcc3f1c6	-0.023918997

refine.refine5.bias f4 [20]
0	0x3be8c3be	0.0071034124
1	0xbbf02e49	-0.0073297364
2	0x3c16a4a6	0.009194529
3	0xbc1d87a7	-0.009614862
4	0x3d806d26	0.062708184
5	0x3c93251e	0.017962035
6	0x3ce0cad3	0.027440464
7	0x3c913c6b	0.017729005
8	0xbb3142e4	-0.0027047927
9	0x3acd2288	0.001565055
10	0xb9c14c73	-0.00036868788
11	0x3bf56c56	0.0074897213
12	0x3b722b94	0.0036952244
13	0x3c2acd64	0.0104249455
14	0x3c4e3b3c	0.012587365
15	0x3c0e3442	0.008679451
16	0x3d02da6e	0.031946592
17	0x3d6566f1	0.056006376
18	0x3ccf7bb8	0.025327548
19	0xbc18ee4e	-0.00933416

refine.refine6.weight f4 [3, 20, 7, 7]
0	0x3c3afc6b	0.01141272
1	0x3c94a344	0.018144257
2	0x3c7e5a0b	0.015524398
3	0x3cbceb46	0.023061406
4	0x3c94af24	0.01814992
5	0x3bca8cb4	0.006181324
6	0x3cb7e07e	0.022445913
7	0x3a00bdce	0.00049110956
8	0xbd04bc5e	-0.032406203
9	0x3cdb0590	0.02673605
10	0x3d8d0086	0.068848655
11	0x3c773b23	0.015089783
12	0xbd037cb0	-0.032101333
13	0xbc9fb5ff	-0.019495962
14	0xbca73d22	-0.020414893
15	0x3be0fbdf	0.006865963
16	0xbd32d75f	-0.043662425
17	0xbd2999ad	-0.041406322
18	0x3d5be6fd	0.053687084
19	0xbcb3a0ae	-0.021927204
20	0x3be526e0	0.0069931597
21	0xbc92c2aa	-0.017915089
22	0x3c96ecbd	0.018423432
23	0x3d0caeac	0.034346268
24	0xbdb256ee	-0.08707987
25	0xbd808677	-0.06275647
26	0x3d0900dc	0.033448085
27	0x3d1cfc6e	0.038326673
28	0xba9009dc	-0.0010989266
29	0xbd544154	-0.051820114
30	0x3b8d1aa2	0.0043061534
31	0xbd254884	-0.04035236
32	0xbd8e4d90	-0.069483876
33	0x3d06fe6f	0.03295749
34	0x3a99dda1	0.0011739024
35	0x3caf8982	0.021427874
36	0xbc851700	-0.016246319
37	0xbce78d0a	-0.028265495
38	0xbb9f4d62	-0.0048615197
39	0x3d4aaeb2	0.04948301
40	0x3d05bf70	0.032653272
41	0xbcf6514a	-0.030068059
42	0x3bb28540	0.0054480135
43	0x3bf27604	0.0073993225
44	0xbc9c7276	-0.019097548
45	0x3c91b3d0	0.017785937
46	0x3c3f1112	0.011661785
47	0xbbd1eef8	-0.006406661
48	0x3b77591d	0.0037742325
49	0xbc2b5be5	-0.010458921
50	0x3cb826d2	0.022479448
51	0xbd1d5ae4	-0.03841676
52	0x3cb4de24	0.022078581
53	0xbdbc276e	-0.09187208
54	0x3d25e77a	0.040503956
55	0xbc57c6ed	-0.013169986
56	0xbc8fa408	-0.01753427
57	0x3b099249	0.0020991734
58	0x3bbf1f33	0.0058325767
59	0x3bff2c7f	0.007787287
60	0xbc479b49	-0.012183019
61	0x3d59ea15	0.053201754
62	0x3c67926c	0.014134031
63	0xbcada060	-0.021194637
64	0xbcf41151	-0.029793413
65	0xbce733e7	-0.028222991
66	0xbca7a5b6	-0.02046476
67	0xbd8f41ec	-0.069949955
68	0x3cf7e820	0.030262053
69	0x3a980b84	0.0011600112
70	0x3d834b6b	0.06410869
71	0x3d95ac5f	0.07308268
72	0x3dda67c8	0.10664326
73	0x3d9ff5cf	0.07810556
74	0xbe079972	-0.13242128
75	0x3d3d106a	0.04615823
76	0x3de992b0	0.114049315
77	0xbc74d6f0	-0.014943823
78	0x3a7ef54c	0.0009725883
79	0x3cedbc65	0.029020498
80	0x3da12968	0.07869226
81	0xbdc40e6b	-0.095730625
82	0xbda3bee2	-0.079953924
83	0xbcf1a584	-0.02949787
84	0xbcd3f246	-0.02587236
85	0xbcc8765d	-0.024470503
86	0xbc9e2458	-0.01930444
87	0x3d98f50d	0.07468615
88	0x3d4d89f6	0.050180398
89	0x3c94d453	0.01816765
90	0xbd4cf5aa	-0.05003897
91	0xba35e464	-0.0006938635
92	0xbb8b8474	-0.004257733
93	0xbd9d9e14	-0.07696167
94	0xbceb9090	-0.028755456
95	0x3c37e4d9	0.011223995
96	0x3dbdafab	0.09262022
97	0xbd0f27f8	-0.034950227
98	0xbbdcb58f	-0.0067355107
99	0xb9719e94	-0.00023042626
100	0xbc2531c5	-0.010082667
101	0xbc980357	-0.01855628
102	0x3d489e45	0.048979063
103	0xbcd7b5d2	-0.026331816
104	0x3b28d874	0.0025763782
105	0x3af508c2	0.0018694627
106	0x3c3882a6	0.011261618
107	0x3ba6c27e	0.0050891032
108	0xbbdd0e54	-0.006746093
109	0x3c4d786a	0.012540916
110	0xbbdf2e7b	-0.006810961
111	0x3b958bb2	0.004563772
112	0x3c29e788	0.010370143
113	0xbc41c4c9	-0.011826702
114	0x3cb685e4	0.02228064
115	0xbcb1e861	-0.021717252
116	0x3cee7c98	0.029112145
117	0xbcee7ac9	-0.029111283
118	0xbb77f4bd	-0.0037835084
119	0x3cee6bc4	0.029104121
120	0x3c823aee	0.01589724
121	0x3d042998	0.03226623
122	0xbb31ae23	-0.002711185
123	0x3cf280d7	0.029602451
124	0x3c1e1157	0.009647689
125	0x3cbde350	0.02317968
126	0xbc689173	-0.014194834
127	0xbc6807e8	-0.014162041
128	0xbd05c182	-0.032655247
129	0xbda70b65	-0.0815647
130	0x3c907bae	0.0176371
131	0x3d276c8f	0.040875014
132	0xbc4d2011	-0.012519852
133	0xbc8e43a9	-0.017366247
134	0xbc2c0135	-0.010498335
135	0xbd319fbd	-0.04336523
136	0x3d0452b9	0.032305453
137	0x3d8b637c	0.068060845
138	0xbd0398fc	-0.03212832
139	0xbd01e0ab	-0.0317084
140	0x3c9c672e	0.019092169
141	0x3bcf6ced	0.0063301236
142	0x3d44eb7d	0.04807614
143	0xb97b54df	-0.00023968842
144	0x3d3d54a7	0.04622331
145	0xbcca1811	-0.024669679
146	0x37e672cd	2.7471595e-05
147	0x3c1785c5	0.009248202
148	0x3c7383a9	0.014862933
149	0x3c0b008e	0.008484019
150	0x3b37adc8	0.0028027166
151	0x3c02e7eb	0.007989864
152	0xbb384922	-0.0028119762
153	0x3c9466d2	0.018115435
154	0x3c88e788	0.016711965
155	0xbcd4f54e	-0.025995877
156	0x3c540b7b	0.01294219
157	0x3bd60bff	0.0065321918
158	0xbc914ce2	-0.017736856
159	0xbbabe15d	-0.0052453713
160	0x3c117e62	0.00888023
161	0x3b90e373	0.0044216453
162	0x3c592db7	0.013255528
163	0x3d130d24	0.035901204
164	0xbccf64cd	-0.02531662
165	0xbd2868e9	-0.041115675
166	0xbd174b71	-0.03693718
167	0xbcb2e367	-0.02183695
168	0xbc848232	-0.016175363
169	0x3d077feb	0.033080976
170	0xbc822f14	-0.01589159
171	0x3d2022bf	0.039095636
172	0x3cd74974	0.026280142
173	0x3cf4ebb3	0.029897546
174	0x3ca18432	0.019716356
175	0x3c0b87d7	0.008516273
176	0xbba3902a	-0.004991551
177	0xbcf42a6c	-0.029805385
178	0x3d5ba0f7	0.053620305
179	0xbdce7b47	-0.10082107
180	0xbcadc5c2	-0.021212462
181	0xbbbfa38a	-0.005848353
182	0xbb6c8ca7	-0.0036094578
183	0x3c4eb6bd	0.01261681
184	0x3b69f440	0.0035698563
185	0x3d1e3ff6	0.038635217
186	0xbd7da348	-0.061923295
187	0x3cd13c2d	0.02554139
188	0xbbbc300d	-0.005743033
189	0xbba507c7	-0.0050363275
190	0x3b678472	0.0035326746
191	0xbc0a56ac	-0.008443516
192	0x3cafa32e	0.021440115
193	0x3c6ef6c4	0.014585201
194	0xbc4921b7	-0.012276105
195	0xbba4295e	-0.005009814
196	0xbe8338c8	-0.25629258
197	0x3c3632e0	0.011120528
198	0xbc1ddbbc	-0.009634908
199	0xbcc6f5b9	-0.024287092
200	0xbace84ee	-0.0015756169
201	0x3be6058e	0.007019705
202	0x3c129a32	0.008947896
203	0xbd109e26	-0.035307072
204	0x3e4eca24	0.20194298
205	0x3dc320e5	0.095277585
206	0x3d53f7ae	0.051749878
207	0xbbe96410	-0.007122524
208	0x3c999949	0.01874985
209	0xbb534b82	-0.003224105
210	0x3cc929d1	0.024556072
211	0x3d855cfa	0.065118745
212	0x3cb59a72	0.022168372
213	0x3c88a24f	0.016678957
214	0x3bda5e04	0.0066640396
215	0xbc0f1b25	-0.008734499
216	0x3c3a11f3	0.0113568185
217	0x3d321271	0.04347462
218	0x3d870615	0.06592957
219	0x3d11426b	0.03546373
220	0x3d4faa3d	0.05069946
221	0x3cbb4b04	0.022862919
222	0x3cb71e57	0.022353334
223	0xb939e4a6	-0.00017728153
224	0x3d5af582	0.05345679
225	0xbd78ea97	-0.060770597
226	0x3c9f57db	0.019451072
227	0x3bc6ab08	0.006062869
228	0x3c06a890	0.008218899
229	0xbcd10f48	-0.025519982
230	0xbc0a3b25	-0.008436953
231	0x3cca229e	0.02467471
232	0xbaa57b84	-0.0012625312
233	0x3ba80db4	0.0051285867
234	0x3c31fb41	0.010863126
235	0x3b5a8dff	0.0033348796
236	0x3c86089e	0.01636153
237	0x3c64dc81	0.013968588
238	0x3c0e079d	0.008668807
239	0x3bdb9b29	0.006701846
240	0x3a62cbdd	0.0008651594
241	0x3c1bdd71	0.009513245
242	0xbb6cfa11	-0.0036159793
243	0x39d4d96c	0.00040597783
244	0xbb8eec06	-0.0043616323
245	0xbc08559e	-0.008321194
246	0x3be7123d	0.0070517347
247	0xbcd17eac	-0.025573097
248	0x3c246166	0.010032987
249	0x3ca3f117	0.020012422
250	0xbcb83e6c	-0.022490703
251	0xbc208d62	-0.009799333
252	0x3cd56d95	0.02605323
253	0x3a878ee4	0.0010342267
254	0x3cfcc60a	0.030856151
255	0xbcaf281d	-0.021381432

refine.refine6.bias f4 [3]
0	0x3b57ec3d	0.0032947205
1	0x3be0e0eb	0.00686275
2	0x3a46926d	0.000757492

encoder1.0.weight f4 [3]
0	0x3f695cf0	0.91157436
1	0x3f8678c5	1.0505606
2	0x3f63ec4b	0.8903243

encoder1.0.bias f4 [3]
0	0xbe633ca3	-0.221911
1	0xbe8128ba	-0.25226384
2	0xbe75c70f	-0.24001716

encoder1.0.running_mean f4 [3]
0	0x3f12b14f	0.573018
1	0x3f072fc9	0.5280729
2	0x3f055db2	0.5209609

encoder1.0.running_var f4 [3]
0	0x3d0f84f5	0.035038907
1	0x3d152fce	0.036422543
2	0x3d213de8	0.03936568

encoder1.2.weight f4 [16, 3, 3, 3]
0	0x3d82d732	0.063887015
1	0xbe3d28f4	-0.18472654
2	0x3e176bc0	0.14787197
3	0x3d870ef2	0.065946475
4	0xbf0115f3	-0.50424117
5	0xbe2cf0f9	-0.16888799
6	0xbc19909f	-0.009372859
7	0xbe65e121	-0.22449161
8	0x3dc4396d	0.095812656
9	0x3da9a089	0.08282573
10	0xbda21df9	-0.07915873
11	0xbc9aa4dc	-0.01887744
12	0x3daa1218	0.08304232
13	0xbe9c0138	-0.3046968
14	0xbd082ec8	-0.03324774
15	0x3cc9e3b2	0.024644706
16	0x3d812b19	0.06307048
17	0xbd6bbb49	-0.057551656
18	0x3d8200b5	0.06347791
19	0xbdee046e	-0.11621939
20	0x3e005a99	0.1253456
21	0x3d4fe5f6	0.050756417
22	0xbcc0be71	-0.02352831
23	0xbd2e1c8f	-0.042507704
24	0x3d51ce6e	0.051222257
25	0xbd9afbe2	-0.07567574
26	0x3da5fbd0	0.0810467
27	0xbcee3b44	-0.029080994
28	0x3dc0475a	0.09388609
29	0x3dc909ae	0.098162994
30	0xbd3d9cec	-0.04629223
31	0x3e94262d	0.28935376
32	0x3da6f986	0.081530616
33	0x3da6be3d	0.08141754
34	0x3e8b2b41	0.27181438
35	0x3d5bbcb7	0.05364677
36	0xbe3fe103	-0.18738179
37	0x3da86210	0.08221829
38	0xbd3f153a	-0.046651103
39	0xbdec3302	-0.115331665
40	0xbc458df1	-0.012057767
41	0x3dab2c67	0.083580784
42	0x3d725270	0.05916065
43	0x3df8d674	0.12150279
44	0x3e17323c	0.14765257
45	0x3c8db08c	0.017296098
46	0x3cfefffd	0.031127924
47	0xbd46de54	-0.048551872
48	0xbe73e585	-0.23818024
49	0xbbca9a53	-0.0061829477
50	0xbd477642	-0.048696764
51	0x3cd5ee94	0.02611474
52	0x3d69402e	0.056945972
53	0x3d82c497	0.06385153
54	0xbd04851e	-0.032353513
55	0xbe2f1049	-0.17096056
56	0xbdcc0bd4	-0.099631935
57	0xbddf4504	-0.109018356
58	0x3e29b4f9	0.16572942
59	0x3ea01f8d	0.3127407
60	0xbe020188	-0.12695897
61	0xbe072f63	-0.1320167
62	0x3e8e7420	0.2782297
63	0x3d4d873e	0.050177805
64	0xbdbf95b1	-0.09354723
65	0xbde97303	-0.1139889
66	0x3dd79521	0.10526491
67	0x3df18d04	0.11794475
68	0x3e7e3dd1	0.24828269
69	0xbd8458c5	-0.06462244
70	0x3d859a87	0.065236144
71	0x3e25b3d3	0.16181879
72	0x3cc75634	0.024333097
73	0xbdc607ea	-0.09669478
74	0x3d803237	0.06259578
75	0xbc086702	-0.00832534
76	0xbd7f0264	-0.06225814
77	0x3d8f0563	0.06983449
78	0xbcf88b8f	-0.030339984
79	0xbe2c39a7	-0.16818868
80	0x3d28f4d0	0.041249096
81	0xbda3ffab	-0.08007749
82	0x3d3c1bea	0.04592506
83	0xbdce608e	-0.1007701
84	0x3de2cd9c	0.11074373
85	0xbb0d6adc	-0.0021578586
86	0xbd4825f8	-0.048864335
87	0xbd79f6be	-0.061026327
88	0x3de90dea	0.11379607
89	0x3d41c6ec	0.047308847
90	0x3da0b730	0.0784744
91	0xbe0340ef	-0.12817739
92	0xbe3bba5b	-0.18332808
93	0xbd92e5e5	-0.07172755
94	0x3da3178c	0.079634756
95	0xbdb6f488	-0.089333594
96	0xbd087429	-0.033313904
97	0x3dd14289	0.10217769
98	0x3e38022b	0.17969577
99	0x3de3eff1	0.111297496
100	0x3c376526	0.011193549
101	0xbed0c3f9	-0.40774515
102	0xbd963a7f	-0.07335376
103	0xbdd5bd2b	-0.104364716
104	0xbeb9a991	-0.3626218
105	0xbd4637e9	-0.048393164
106	0xbd01161d	-0.03151523
107	0xbd9b61b2	-0.07586993
108	0xbbd89f10	-0.0066107586
109	0x3cc70892	0.024296079
110	0xbbcc2124	-0.0062295366
111	0xbdc29ac9	-0.09502179
112	0x3b89988a	0.0041990923
113	0x3e24e2f7	0.16102205
114	0xbd490553	-0.049077343
115	0x3dfd453d	0.12366722
116	0xbdab72ae	-0.08371483
117	0xbe0e1db1	-0.13878514
118	0xbc6e43e1	-0.014542551
119	0x3d8dd9c9	0.06926305
120	0x3c8e8eed	0.017402137
121	0x3d6d5e09	0.057951007
122	0xbd0cbd7c	-0.034360394
123	0x3e263610	0.1623156
124	0x3c8d3a13	0.017239606
125	0xbde49ce6	-0.111627385
126	0x3d7a1e89	0.061064277
127	0x3d4fc4d4	0.05072482
128	0x3e0c0ff9	0.13677968
129	0x3dc9ac31	0.09847296
130	0x3c905f5c	0.017623596
131	0xbe468bfa	-0.19389334
132	0xbb7add3a	-0.0038278834
133	0xbe25f38d	-0.16206188
134	0xbf153104	-0.58277917
135	0x39ce8585	0.00039390862
136	0xbd72f6e6	-0.059317492
137	0xbe17c258	-0.1482023
138	0xbd608970	-0.05481857
139	0xbcbef834	-0.023311712
140	0x3bdbead3	0.006711343
141	0xbed2a42b	-0.41140875
142	0xbe526c7d	-0.20549197
143	0xbe3c9b6c	-0.18418664
144	0xbdd39d24	-0.103327066
145	0x3d8cf26a	0.06882174
146	0x3e1178cb	0.14206235
147	0x3d1d2337	0.03836366
148	0x3e04eb93	0.1298049
149	0xbd13abf3	-0.036052655
150	0xbea00503	-0.31253824
151	0x3d89f0ad	0.067353584
152	0x3d945424	0.07242611
153	0xbd430334	-0.047610477
154	0x3d95c5df	0.073131315
155	0xbde5e2a9	-0.112248726
156	0xbd0c1560	-0.034200072
157	0x3d7fac67	0.062420275
158	0x3dd4e0ff	0.10394477
159	0xbdb10c08	-0.08644873
160	0xbe34ab84	-0.17643553
161	0xbdddc5e7	-0.108287625
162	0x3c3fec71	0.011714087
163	0x3e167ce6	0.14696082
164	0x3db3b12b	0.087740265
165	0xbea7769c	-0.3270768
166	0xbd742c83	-0.059612762
167	0x3c369158	0.011143051
168	0xbe030458	-0.12794626
169	0x3d4ffbeb	0.050777357
170	0x3dc4406f	0.09582602
171	0x3d4a65c9	0.049413476
172	0x3d437b92	0.047725268
173	0xbd1cd1f8	-0.03828618
174	0xbe98c638	-0.2983873
175	0xbdcfdeb7	-0.10149901
176	0x3e46ee73	0.19426899
177	0xbd0dac6a	-0.034588255
178	0xbd1fe4e3	-0.039036643
179	0x3d43a3c3	0.047763597
180	0x3c565296	0.013081213
181	0xbc42a270	-0.011879548
182	0xbd92eb2d	-0.071737625
183	0xbe9b891a	-0.30378038
184	0x3dc4a01b	0.0960085
185	0xbd21dd14	-0.039517477
186	0x3dba3d49	0.090937205
187	0xbdc13b01	-0.09435082
188	0x3d9f50b4	0.07779065
189	0x3dc86cfe	0.097864136
190	0x3e2c27c8	0.1681205
191	0xbd971e3a	-0.07378812
192	0x3cd72924	0.026264735
193	0x3e0764b3	0.13222007
194	0x3d07ecf7	0.03318497
195	0x3e0f56b9	0.13997926
196	0x3c200ba1	0.009768398
197	0xbd015803	-0.031578075
198	0x3e03d81d	0.1287541
199	0x3c9c47c0	0.019077182
200	0x3c9ec931	0.019383045
201	0xbe3cd10b	-0.18439119
202	0xbe2778b4	-0.16354638
203	0xbe92ce7b	-0.28673157
204	0x3cb10b4b	0.02161183
205	0xbd90f98b	-0.070788465
206	0xbe5e3ffa	-0.21704093
207	0xbdcd30e5	-0.100190915
208	0xbd0b4001	-0.033996586
209	0x3e0483f8	0.12940967
210	0x3db0d255	0.08633868
211	0xbd530613	-0.051519465
212	0xbdfcda64	-0.12346342
213	0x3d645119	0.055741403
214	0xbc223165	-0.009899472
215	0x3e3d67b9	0.18496598
216	0x3dd17e32	0.10229148
217	0xbc81c3ff	-0.015840529
218	0x3d3ee6da	0.046606876
219	0xbd935813	-0.07194533
220	0xbe844df5	-0.25840726
221	0x3bcd1814	0.006258974
222	0x3e201104	0.15631491
223	0xbc21b180	-0.009868979
224	0x3c1a581a	0.009420419
225	0x3dce15d1	0.10062755
226	0xbd964860	-0.07338023
227	0x3dd1569e	0.10221599
228	0xbd987425	-0.07444028
229	0xbe6efddd	-0.23339029
230	0x3da4f4e6	0.08054523
231	0xbc9cced4	-0.019141592
232	0x3a287b86	0.0006427098
233	0x3db1fdc2	0.086909786
234	0xbdad2c96	-0.0845577
235	0x3cd93987	0.026516689
236	0x3d0d1800	0.034446716
237	0xbdbf6f7c	-0.09347436
238	0xbf1713a9	-0.59014374
239	0xbd116cde	-0.035504214
240	0x3dccf91a	0.1000845
241	0xbe7f6bab	-0.24943416
242	0xbc82a555	-0.015947977
243	0x3d578644	0.05261828
244	0x3d5d4c5a	0.054027893
245	0xbdc70a83	-0.09718802
246	0x3e121ca0	0.14268732
247	0x3e1242e3	0.14283328
248	0x3d212af6	0.03934761
249	0xbd2a6aca	-0.04160575
250	0xbdde8a93	-0.10866275
251	0x3e1d4225	0.15357263
252	0x3cba7ec8	0.022765532
253	0xbe1459cf	-0.14487384
254	0x3d9e09d6	0.0771672
255	0x3c4148cc	0.011797141

encoder1.2.bias f4 [16]
0	0xbcd6cff7	-0.026222212
1	0x3d9ea9bf	0.0774722
2	0x3e1625f7	0.1466292
3	0x3df9c5a9	0.12195904
4	0x3d0da26c	0.034578726
5	0x3e448936	0.19192967
6	0x3e05dc1a	0.13072243
7	0xbe2bfe9f	-0.16796349
8	0xbe0882f5	-0.13331206
9	0xbdc5b7f7	-0.09654229
10	0x3d5dd8bb	0.05416177
11	0x3d925d0f	0.07146656
12	0x3c9ab00e	0.018882778
13	0x3e21b606	0.15792093
14	0xbe623660	-0.22091055
15	0x3e26ecb1	0.16301228

encoder1.3.weight f4 [16]
0	0x3f87f8bb	1.0622782
1	0x3f600e3b	0.87521714
2	0x3f3eeeec	0.74583316
3	0x3f960b15	1.1722132
4	0x3f8847bd	1.0646893
5	0x3f82025d	1.0156971
6	0x3f818e66	1.0121582
7	0x3f59c08a	0.85059416
8	0x3f8b6711	1.0890828
9	0x3f8529ec	1.0403419
10	0x3f7412a9	0.95340973
11	0x3f4d38ea	0.8016497
12	0x3f62b517	0.8855757
13	0x3f48e96d	0.7848118
14	0x3f73a48e	0.95172966
15	0x3f5c7692	0.86118424

encoder1.3.bias f4 [16]
0	0xbe96242c	-0.29324472
1	0xbdc5ca9b	-0.096577846
2	0x3e0673d2	0.1313012
3	0xbe80704b	-0.25085673
4	0xbea87cb1	-0.32907632
5	0xbda4996a	-0.08037074
6	0xbe85a23a	-0.26100332
7	0xbe19b67c	-0.15011019
8	0xbe8f5871	-0.27997163
9	0xbe7bbbe3	-0.24583392
10	0xbc37b446	-0.011212414
11	0x3c4b64ef	0.012414201
12	0xbd4582fd	-0.048220623
13	0x3cd146c3	0.025546437
14	0xbdc5b522	-0.09653689
15	0x3d8ef221	0.06979776

encoder1.3.running_mean f4 [16]
0	0xbe376364	-0.17909008
1	0x3e6f2aaf	0.23356126
2	0x3e6a54f7	0.22883974
3	0xbd1c82c2	-0.038210638
4	0xbd209936	-0.039208613
5	0xbce1fc21	-0.027586045
6	0x3d240388	0.04004243
7	0xbe545c6b	-0.2073838
8	0xbe93cd39	-0.2886751
9	0xbe847345	-0.25869194
10	0x3d182173	0.037141275
11	0x3e20582f	0.1565864
12	0xbc09e09d	-0.008415368
13	0x3e412d99	0.1886505
14	0xbe082b3a	-0.1329774
15	0x3e09df4f	0.13464092

encoder1.3.running_var f4 [16]
0	0x3e5304ab	0.2060725
1	0x3e5a500c	0.21319598
2	0x3d9499f6	0.07255928
3	0x3e809c56	0.25119275
4	0x3d815fd6	0.063171074
5	0x3ec8e51a	0.3923729
6	0x3db5cf06	0.08877377
7	0x3cd262f3	0.025681948
8	0x3e733500	0.23750687
9	0x3e8dbfc1	0.2768536
10	0x3c71d000	0.014759064
11	0x3dc53db4	0.096309096
12	0x3c8abbde	0.016935285
13	0x3c88cfa9	0.016700583
14	0x3da1bd37	0.07897418
15	0x3cb16c44	0.02165807
